model/checkpoint.pt (torch_old, 299894 bytes, 63 tensors)

conv_blocks.0.conv.weight f4 [7, 64]
0.11074184 -0.17418185 -0.06344478 -0.09050907 -0.033023488 -0.11648182 -0.0729007 0.17708744
-0.00845916 0.16543578 0.055615578 0.20609374 0.17097634 0.052322518 -0.30393553 -0.0325003
0.63939047 0.1366237 -0.1723196 0.28886166 0.02008809 0.116922125 0.052055802 0.18966039
-0.021048246 0.90907353 0.04842496 0.40318856 -0.3822992 -0.21351448 -0.119634345 -0.03602938
-0.23372531 0.107711695 0.24334675 0.0842814 -0.050481513 0.042153653 0.07911884 -0.07455186
0.069029965 0.3829179 -0.008197286 -0.021184659 -0.37306148 0.33579546 -0.02765234 -0.03629789
0.0067662955 -0.015532109 -0.100331426 0.00013746944 0.09486178 0.46851942 0.12698482 -0.06331819
-0.14514081 -0.09210796 -0.17339693 0.2800632 -0.07464195 0.38728815 -0.9384212 0.34608534
0.097899996 -0.033359107 -0.03759715 -0.034362476 -0.2049256 0.063597836 0.09663482 0.40880412
-0.09032349 0.07694121 0.7679365 0.5199584 0.3370262 -0.010166815 -0.2026509 0.13211583
-0.08490663 0.089128666 -0.043208 -0.78231907 -0.29619268 0.26510862 -0.027396323 -0.8079488
-0.15275091 -0.84799784 0.30074537 -0.7726002 0.4775458 0.9478402 -0.5440863 0.046175025
0.8109676 0.78179705 -0.1364068 -0.10060615 0.91713685 0.18041247 -0.012591596 0.24839798
0.023979386 -0.55359393 0.32852525 0.2605146 -0.61931205 0.60383207 0.013123057 0.74531746
-0.21200801 -0.04546613 0.30669087 -0.021560615 -0.13113232 0.046399817 0.65021384 -0.17340592
0.6726862 -0.19298777 -0.30403522 -0.2847423 0.24727547 -0.36662942 -0.52049905 -0.09474045
0.40790305 0.07192967 -0.051466487 -0.17216764 0.010327935 0.052499514 -0.22181424 -0.63863534
0.015939109 -0.10641682 0.0024589696 -0.4115345 -0.21299598 -0.05000847 -0.31578767 0.00026046074
-0.022128314 0.029067125 -0.14456137 -0.088376865 -0.06569334 -0.23543316 -0.21064477 -0.061495848
-0.22133715 0.36036995 -0.38384694 -0.18872152 -0.13828792 -0.13080728 0.14807066 0.0067128926
-0.22141545 -0.90441406 -0.21546055 0.034464974 -0.114403546 0.013478863 -0.055115692 -0.116374224
-0.055758134 -0.57493 -0.25901315 -0.15639694 -0.22954433 -0.12917414 0.041372895 0.06193587
-0.2850887 -0.057695236 -0.14300215 0.015684308 -0.23302825 -0.04283516 -0.3318085 -0.36396188
0.21101893 -0.013013971 -0.10749844 -0.18784226 -0.119792685 -0.33461025 -0.1231536 0.015148978
-0.88894784 -0.49091998 -0.7617888 0.029614829 -0.0754604 -0.10514893 -0.38792047 0.20154622
-0.13352922 0.059844345 -0.6560491 0.1446061 0.19880268 0.03847795 -1.4821236 -0.24579188
-0.046144 1.7034439 0.4901486 -0.3932567 -0.81493676 0.037119407 1.3616828 1.1127307
-0.15679511 -1.0075927 0.11026658 1.1527454 -0.38338834 0.22549513 0.13849126 0.0101995785
-0.532461 0.4082149 -0.22182918 0.016580673 -0.47859776 -0.07661395 -0.060863335 -0.79594123
-0.12488217 -0.8483781 0.35029107 -0.046865944 0.05084604 0.09147335 0.0150955515 -0.28881982
0.20749733 -0.6141881 0.62436223 -0.0035232534 -0.15710308 0.048960008 0.2705946 -0.24872144
0.45538953 0.043538228 -0.3963519 -1.4154749 -0.8687465 -1.6993163 0.7564406 -0.09107202
00000000: 9ecc e23d ba5c 32be 56ef 81bd d25c b9bd
00000010: a343 07bd 058e eebd f64c 95bd 6956 353e
00000020: 4a98 0abc ff67 293e 29cd 633d 3d0a 533e
00000030: 6c14 2f3e 2350 563d 709d 9bbe 091f 05bd
00000040: 18af 233f 15e7 0b3e 8d74 30be ade5 933e
00000050: c78f a43c de74 ef3d 7738 553d 5536 423e
00000060: 5f6d acbc 0bb9 683f 4059 463d bb6e ce3e
00000070: b9bc c3be 8aa3 5abe da02 f5bd 8b93 13bd
00000080: b055 6fbe f397 dc3d e42f 793e ba9b ac3d
00000090: b4c5 4ebd 4fa9 2c3d 0f09 a23d a5ae 98bd
000000a0: 955f 8d3d d10d c43e e94d 06bc 738b adbc
000000b0: ea01 bfbe 62ed ab3e 2987 e2bc 19ad 14bd
000000c0: cdb7 dd3b 637a 7ebc 907a cdbd ac25 1039
000000d0: e546 c23d c7e1 ef3e 4f08 023e f8ac 81bd
000000e0: cb9f 14be 19a3 bcbd f78e 31be 7264 8f3e
000000f0: e1dd 98bd a24a c63e 5f3c 70bf 1932 b13e
00000100: cb7f c83d 8fa3 08bd 78ff 19bd abbf 0cbd
00000110: 04d8 51be 953f 823d 7ae8 c53d c64e d13e
00000120: 86fb b8bd 5a93 9d3d 7d97 443f fe1b 053f
00000130: b38e ac3e b692 26bc b883 4fbe 5f49 073e
00000140: 87e3 adbd 1789 b63d dffa 30bd 1046 48bf
00000150: 91a6 97be 51bc 873e 416e e0bc bcd5 4ebf
00000160: bc6a 1cbe 6316 59bf 4cfb 993e 20c9 45bf
00000170: e280 f43e a8a5 723f 3d49 0bbf 0622 3d3d
00000180: 939b 4f3f da23 483f 39ae 0bbe 990a cebd
00000190: 7bc9 6a3f 0cbe 383e fb4c 4ebc 0a5c 7e3e
000001a0: 6b70 c43c 55b8 0dbf 7634 a83e 2b62 853e
000001b0: 3c8b 1ebf bd94 1a3f 1702 573c 20cd 3e3f
000001c0: a118 59be b13a 3abd 9606 9d3e e39f b0bc
000001d0: 8d47 06be bc0d 3e3d 6a74 263f 5291 31be
000001e0: 2a35 2c3f 969e 45be 81aa 9bbe bec9 91be
000001f0: c835 7d3e dab6 bbbe 6d3f 05bf 4807 c2bd
00000200: abd8 d03e dd4f 933d 86ce 52bd b74c 30be
00000210: 8036 293c bb09 573d 4623 63be 9b7d 23bf
00000220: bc92 823c 10f1 d9bd aa26 213b a6b4 d2be
00000230: 9e1b 5abe aed5 4cbd ecae a1be 738e 8839
00000240: 7046 b5bc 2e1e ee3c e507 14be eefe b4bd
00000250: 3b8a 86bd 6415 71be 43b3 57be 12e3 7bbd
00000260: 35a6 62be 6982 b83e 9687 c4be 3740 41be
00000270: 599b 0dbe 58f2 05be d69f 173e d3f7 db3b
00000280: bbba 62be ae87 67bf b1a1 5cbe 252b 0d3d
00000290: 684c eabd 73d6 5c3c fec0 61bd 9c55 eebd
000002a0: a462 64bd 9d2e 13bf 5f9d 84be 8526 20be
000002b0: ab0d 6bbe 3a46 04be a076 293d 78b0 7d3d
000002c0: 25f7 91be d751 6cbd 286f 12be 617c 803c
000002d0: f59e 6ebe ec73 2fbd cee2 a9be 3659 babe
000002e0: 5915 583e 8d38 55bc 2428 dcbd b959 40be
000002f0: de55 f5bd 0952 abbe f437 fcbd 6b33 783c
00000300: 1692 63bf dd59 fbbe 9704 43bf cc9a f23c
00000310: fb8a 9abd 5258 d7bd 839d c6be 2262 4e3e
00000320: e2bb 08be 581f 753d d5f2 27bf 9f13 143e
00000330: ee92 4b3e 0e9b 1d3d 3ab6 bdbf deb0 7bbe
00000340: 7e01 3dbd 730a da3f c2f4 fa3e f158 c9be
00000350: b29f 50bf 850a 183d 9f4b ae3f f66d 8e3f
00000360: e68e 20be ccf8 80bf 72d3 e13d 298d 933f
00000370: 7a4b c4be 32e8 663e a7d0 0d3e 221c 273c
00000380: 5d4f 08bf 8b01 d13e 3027 63be 31d4 873c
00000390: c40a f5be c6e7 9cbd d54b 79bd cec2 4bbf
000003a0: 39c2 ffbd 4f2f 59bf 5a59 b33e 81f6 3fbd
000003b0: f043 503d 6156 bb3d 5553 773c 31e0 93be
000003c0: 2e7a 543e 6e3b 1dbf 34d6 1f3f 62e6 66bb
000003d0: a1df 20be 4a8a 483d 608b 8a3e d5b0 7ebe
000003e0: d128 e93e 2455 323d a3ee cabe 482e b5bf
000003f0: 2c66 5ebf 3283 d9bf 17a6 413f f883 babd

conv_blocks.0.conv.bias f4 [64]
0.023958558 -0.1857148 -0.32987833 -0.30850902 -0.42287645 -0.13873243 -0.19941683 -0.19333696
-0.028858151 -0.23827648 -0.14343871 -0.28861558 -0.22190219 -0.18600738 -0.07042585 -0.39142773
-0.13604128 -0.66898906 -0.46770042 -0.47129735 -0.28636268 -0.17245828 0.040506802 -0.21325602
-0.72137135 -0.2236102 -0.21828179 0.309295 -0.052841607 -0.15977666 -0.12772866 -0.12838839
0.52629256 0.082550585 -0.10085482 -0.16620019 -0.15129761 -0.15960518 -0.10022624 -0.25128946
-0.13088179 0.16655205 -0.28375065 -0.19760358 -0.24927793 -0.13765192 -0.105977744 -0.19207579
-0.24511749 -0.38335654 -0.03991075 -0.055687293 -0.27186078 -0.121572465 -0.12805785 -0.24252485
0.24657346 -0.14904699 -0.32973564 -0.14092498 -0.31860915 0.028639812 0.3550578 -0.13547711
00000000: bd44 c43c 052c 3ebe d0e5 a8be e5f4 9dbe
00000010: 4383 d8be e00f 0ebe ed33 4cbe 20fa 45be
00000020: ee67 ecbc c0fe 73be 99e1 12be 6cc5 93be
00000030: 543a 63be b878 3ebe 6e3b 90bd 3769 c8be
00000040: 684e 0bbe de42 2bbf 6e76 efbe e34d f1be
00000050: 219e 92be e798 30be 76ea 253d c95f 5abe
00000060: cbab 38bf 13fa 64be 4385 5fbe ea5b 9e3e
00000070: 7170 58bd 7e9c 23be 4dcb 02be 3f78 03be
00000080: 1cbb 063f 4810 a93d f98c cebd 6230 2abe
00000090: c3ed 1abe 8a6f 23be 6a43 cdbd 03a9 80be
000000a0: e005 06be 9f8c 2a3e c447 91be 9858 4abe
000000b0: b742 7fbe a0f4 0cbe dc0a d9bd 84af 44be
000000c0: 1400 7bbe 4f47 c4be 7479 23bd 5c18 64bd
000000d0: 5631 8bbe fcfa f8bd 9921 03be 6f58 78be
000000e0: c17d 7c3e c69f 18be 1cd3 a8be a34e 10be
000000f0: bd20 a3be 0a9e ea3c 23ca b53e 83ba 0abe

conv_blocks.0.pool.gnn.lin_l.weight f4 [1, 64]
0.021430647 0.4527947 0.64393556 -0.1629054 0.023868328 0.099779435 0.3053546 0.31956184
-0.04885498 0.05807926 0.581585 0.108421184 -0.14620931 0.02365019 0.29237878 0.0077519356
-0.32990375 0.08618321 0.28196102 -1.2821432 0.28030413 0.2866206 -0.007673058 -0.76063234
-0.66801655 -0.046202064 -0.27894333 0.07870184 0.42820072 0.4807659 0.20773248 -0.054753367
0.36771727 0.19762312 -0.18502466 -0.15041882 0.8829082 0.15232705 -0.11511671 0.40893635
0.02869014 -0.2694459 -0.12073564 0.020989439 -0.026682982 0.090665385 0.037751764 0.30783722
-0.08671432 0.4059932 0.009968102 0.08558334 0.039222375 -0.35517165 0.39650655 -0.29384154
0.64599884 -0.1615288 0.38738966 0.1639557 0.49742216 -0.26429215 0.48105645 -0.29558575
00000000: 538f af3c b5d4 e73e f6d8 243f acd0 26be
00000010: 8387 c33c 2959 cc3d 7057 9c3e 9c9d a33e
00000020: 291c 48bd 85e4 6d3d c1e2 143f ed0b de3d
00000030: e5b7 15be 0bbe c13c acb2 953e f303 fe3b
00000040: 25e9 a8be d380 b03d 325d 903e 451d a4bf
00000050: 0684 8f3e efbf 923e 476e fbbb cdb8 42bf
00000060: 2203 2bbf 603e 3dbd a9d1 8ebe 6e2e a13d
00000070: 203d db3e f326 f63e d3b7 543e 1145 60bd
00000080: 7045 bc3e b75d 4a3e 1b77 3dbe 6407 1abe
00000090: 4606 623f 9ffb 1b3e 4fc2 ebbd 1b60 d13e
000000a0: 9607 eb3c d0f4 89be 3f44 f7bd 0bf2 ab3c
000000b0: 4596 dabc c6ae b93d 98a1 1a3d d79c 9d3e
000000c0: 4797 b1bd 57de cf3e 4051 233c 5146 af3d
000000d0: a4a7 203d 0fd9 b5be e802 cb3e 6672 96be
000000e0: 2e60 253f ce67 25be f057 c63e 01e4 273e
000000f0: 1eae fe3e 4d51 87be 084d f63e 0457 97be

conv_blocks.0.pool.gnn.lin_r.weight f4 [1, 64]
-0.16785061 -0.49550846 -0.7537623 0.28012684 0.18748532 -0.03452207 -0.6060009 -0.4040592
0.05664001 0.06693362 -0.7613347 -0.3213725 -0.19763252 0.109341666 -0.9298321 -0.03592415
0.007578604 -0.5448397 0.5962397 0.4130328 -0.9054918 -0.10056764 0.11784348 0.6974732
0.06386724 -0.6741385 -0.20525569 -0.36678103 -0.27442786 -0.4481233 -0.4900765 0.11091606
-0.364701 -0.5510566 -0.026218114 0.24789873 -0.5498055 0.014180552 -0.084730096 -0.5409009
0.048621256 -0.46415237 0.15295571 -0.21438475 0.1664251 -0.17651246 0.03996574 -0.22556208
0.07845332 -0.47309697 0.6844616 0.054843392 0.18146075 -0.112931915 -0.22038136 -0.053093616
-1.0760152 0.33087096 -0.24187624 -1.0381385 -0.84433347 -0.8868056 -0.63151884 0.077207506
00000000: 08e1 2bbe 49b3 fdbe 91f6 40bf c96c 8f3e
00000010: 27fc 3f3e 0467 0dbd e022 1bbf d9e0 cebe
00000020: 5bff 673d 7e14 893d d5e6 42bf f08a a4be
00000030: 2e60 4abe 86ee df3d 7a09 6ebf 3425 13bd
00000040: f055 f83b 9d7a 0bbf 2aa3 183f 0979 d33e
00000050: 50ce 67bf 68f6 cdbd ec57 f13d 9b8d 323f
00000060: d4cc 823d 5794 2cbf 8c2e 52be b9ca bbbe
00000070: cf81 8cbe 6b70 e5be 4feb fabe f627 e33d
00000080: 17ba babe 0c12 0dbf 5fc7 d6bc 2ad9 7d3e
00000090: 0ec0 0cbf 8c55 683c f986 adbd 7b78 0abf
000000a0: 1527 473d 61a5 edbe 6ca0 1c3e ad87 5bbe
000000b0: 576b 2a3e afbf 34be 1eb3 233d bff9 66be
000000c0: 22ac a03d c439 f2be e038 2f3f 77a3 603d
000000d0: d9d0 393e d948 e7bd a7ab 61be b178 59bd
000000e0: deba 89bf eb67 a93e 68ae 77be b9e1 84bf
000000f0: 3d26 58bf b105 63bf 38ab 21bf f81e 9e3d

conv_blocks.1.conv.weight f4 [64, 64]
-0.08608342 -0.022265598 -0.03656387 -0.29279986 -0.0042332844 -0.00020592548 0.042903367 -0.003413033
-0.13206214 -0.20524427 0.23701298 0.009825372 -0.070572995 0.004592814 0.24471541 -0.1843731
-0.15876076 -0.2696709 -0.39070407 -0.47156247 0.0005767847 -0.26950824 0.10879997 -0.3207145
-0.2443938 -0.62090373 0.1407576 -0.16908842 0.006540925 -0.0242551 -0.114665024 -0.088472016
-0.96006525 -0.0564735 0.039146073 -0.050674975 -0.09589967 -0.1383875 -0.027622769 0.14371128
-0.072622545 -0.33513027 -0.0657369 -0.032312907 -0.062024176 0.2657049 -0.054185122 -0.3391091
0.109434105 0.2659326 0.050135482 -0.004342379 -0.042181194 -0.077133514 -0.3707264 -0.068921186
-0.19683173 0.01258041 -0.06599316 -0.066282265 -0.093352236 0.23761903 -0.15412301 -0.008870041
-0.039209127 -0.054351505 -0.08082834 -0.19229577 0.004675937 0.016219847 -0.050506555 -0.3784351
0.0005530179 -0.007850973 -0.355906 0.086378075 0.10150941 0.16177528 -0.5983227 -0.32491174
-0.003521503 -0.10091982 -0.1056893 0.6298403 0.15358245 -0.28045845 -0.013647335 -0.065174684
-0.1189563 0.016287947 -0.109189406 -0.06985189 -0.009445095 -0.3224377 -0.4442834 -0.37270695
0.20755394 -0.05503762 -0.2879932 -0.12938792 0.14347334 0.074544065 0.08124319 -0.092178866
-0.21379508 0.042057544 -0.12511092 -0.0073659974 -0.019575665 -0.26823306 0.06591569 -0.012889992
-0.06942065 0.03134892 0.0067067565 0.041626595 0.011342604 -0.00072978943 0.29650855 -0.043502443
-0.72051036 0.11419512 -0.0868848 -0.005633623 0.24789426 0.19889022 0.12569034 0.10117747
0.026650572 -0.039513543 -0.042391907 -0.039927907 0.04876913 -0.044981305 0.023425967 -0.08397076
0.14076251 -0.020323861 0.029138906 0.00034911343 -0.03993979 -0.051232446 0.14638035 -0.19215856
0.015165644 -0.2303717 -0.5332868 -0.44613642 0.018113453 0.14219068 0.19204448 -0.26198685
0.2674481 0.3722283 0.07542511 -0.060734328 0.090247326 0.05794548 -0.21887451 -0.0065321866
-0.15707885 -0.10323829 0.15839927 -0.001132784 0.018727755 -0.12515198 -0.000684505 0.02937245
-0.045814764 -0.023582079 0.0042669717 -0.019899663 0.0028503663 0.24062322 -0.025482038 0.01652317
-0.03733565 0.09832995 -0.3732634 -0.012325336 -0.11394632 0.052871965 0.034396328 -0.0042226217
0.08197774 0.008162377 -0.016832573 0.023263535 -0.073549286 0.37964085 0.024352076 -0.012652483
-0.056467287 0.077788405 0.01490687 0.005473558 -0.005273025 0.07031684 5.334706e-06 0.06769806
-0.001463016 0.0008090909 0.020134537 0.013620035 0.04629166 0.026339194 -0.095971294 0.018622058
0.012463042 -0.017006725 0.6253921 -0.009245254 -0.008739778 -0.0249564 0.16841263 -0.00668853
-0.02321064 -0.2081489 0.004631898 -0.046016466 -0.022106117 0.009872237 -0.10208978 -0.045108
-0.04406449 0.013839728 -0.107027605 0.0014040484 -0.0033452616 0.15518236 0.005472391 -0.005751996
0.02182353 -0.12222432 -0.0022538488 0.017480068 -0.015247889 0.191502 0.014497493 0.095517494
-0.025543828 0.09638989 -0.06501348 -0.00018543893 -0.04041182 -0.02010618 -0.0074597015 -0.014640492
-0.029297525 -0.00916796 -0.00093425886 0.04758221 -0.096469276 -0.018184153 -0.012797067 0.01642684
00000000: 814c b0bd 5866 b6bc ffc3 15bd dde9 95be
00000010: 5db7 8abb b3ed 57b9 71bb 2f3d 31ad 5fbb
00000020: 4c3b 07be 8e2b 52be 88b3 723e 99fa 203c
00000030: 9388 90bd 517f 963b ad96 7a3e 4dcc 3cbe
00000040: 2e92 22be 4e12 8abe 5d0a c8be a370 f1be
00000050: 5e33 173a fcfc 89be 85d2 de3d b134 a4be
00000060: 5e42 7abe 8cf3 1ebf c322 103e 8425 2dbe
00000070: 4155 d63b a2b2 c6bc 7fd5 eabd d130 b5bd
00000080: d6c6 75bf c250 67bd a257 203d 9090 4fbd
00000090: 0c67 c4bd 74b5 0dbe 2549 e2bc 0d29 133e
000000a0: 21bb 94bd 3296 abbe 11a1 86bd 8a5a 04bd
000000b0: 100d 7ebd 790a 883e 38f1 5dbd b59f adbe
000000c0: fd1e e03d 5128 883e dd5a 4d3d 844a 8ebb
000000d0: 30c6 2cbd 2df8 9dbd dacf bdbe 8d26 8dbd
000000e0: 428e 49be 101e 4e3c 6c27 87bd ffbe 87bd
000000f0: 752f bfbd 6752 733e 6cd2 1dbe a653 11bc
00000100: c099 20bd af9f 5ebd 5489 a5bd 2fe9 44be
00000110: 9a38 993b 7cdf 843c f6df 4ebd 3fc2 c1be
00000120: 67f8 103a 5ea1 00bc 5039 b6be fde6 b03d
00000130: 2ae4 cf3d 6ba8 253e ad2b 19bf d55a a6be
00000140: 04c9 66bb 0daf cebd a273 d8bd 373d 213f
00000150: b844 1d3e 4098 8fbe 1299 5fbc 4e7a 85bd
00000160: 5c9f f3bd 4d6e 853c b29e dfbd 820e 8fbd
00000170: 9abf 1abc 8e16 a5be 1d79 e3be 72d3 bebe
00000180: 0589 543e 216f 61bd d873 93be 447e 04be
00000190: adea 123e 8faa 983d d462 a63d 46c8 bcbd
000001a0: 19ed 5abe 8844 2c3d 141d 00be 775e f1bb
000001b0: 255d a0bc d855 89be cefe 863d 8c30 53bc
000001c0: 6a2c 8ebd ba67 003d 5ac4 db3b a680 2a3d
000001d0: 54d6 393c 574f 3fba f8cf 973e 9e2f 32bd
000001e0: 5e73 38bf 22df e93d a8f0 b1bd 419a b8bb
000001f0: fed7 7d3e e1a9 4b3e f8b4 003e 2236 cf3d
00000200: 4d52 da3c f4d8 21bd 23a3 2dbd 728b 23bd
00000210: 24c2 473d 513e 38bd d0e7 bf3c ddf8 abbd
00000220: 0c24 103e 3a7e a6bc b7b4 ee3c 3609 b739
00000230: e897 23bd 1dd9 51bd bbe4 153e 37c5 44be
00000240: 5279 783c 8fe6 6bbe 7c85 08bf fe6b e4be
00000250: aa62 943c 6f9a 113e 4fa7 443e 2423 86be
00000260: f5ee 883e b594 be3e 7b78 9a3d 8fc4 78bd
00000270: 97d3 b83d 3d58 6d3d a420 60be f40b d6bb
00000280: 47d9 20be 996e d3bd 6b33 223e ec79 94ba
00000290: f36a 993c d727 00be 5a70 33ba 7e9e f03c
000002a0: 43a8 3bbd 342f c1bc f4d1 8b3b 9e04 a3bc
000002b0: 36cd 3a3b ef65 763e b5bf d0bc 995b 873c
000002c0: 44ed 18bd 3661 c93d 611c bfbe 35f0 49bc
000002d0: b05c e9bd 4690 583d 2ae3 0c3d eb5d 8abb
000002e0: f2e3 a73d 7ebb 053c 77e4 89bc 2b93 be3c
000002f0: 02a1 96bd 4960 c23e 017e c73c 5c4c 4fbc
00000300: 3e4a 67bd 874f 9f3d f23b 743c 885b b33b
00000310: 57c9 acbb 4702 903d c700 b336 48a5 8a3d
00000320: acc2 bfba 2c19 543a 2ff1 a43c 9126 5f3c
00000330: 539c 3d3d 4bc5 d73c 998c c4bd 498d 983c
00000340: c931 4c3c b051 8bbc b219 203f 6879 17bc
00000350: 4931 0fbc 5d71 ccbc 5c74 2c3e 752b dbbb
00000360: 3d24 bebc fc24 55be 2dc7 973b c37b 3cbd
00000370: e317 b5bc 2abf 213c 7214 d1bd 2bc3 38bd
00000380: f77c 34bd 07c0 623c 4a31 dbbd 0c08 b83a
00000390: 2d3c 5bbb 20e8 1e3e be51 b33b 3d7b bcbb
000003a0: 42c7 b23c bf50 fabd 4fb5 13bb 5c32 8f3c
000003b0: 48d2 79bc 1a19 443e e586 6d3c ad9e c33d
000003c0: 4a41 d1bc 1068 c53d ca25 85bd 6272 42b9
000003d0: dd86 25bd b7b5 a4bc 8370 f4bb adde 6fbc
000003e0: 5d01 f0bc 3635 16bc 0de9 74ba 90e5 423d
000003f0: af91 c5bd eff6 94bc caaa 51bc 9591 863c

conv_blocks.1.conv.bias f4 [64]
-0.16367228 -0.29514053 -0.16912697 -0.520125 -0.21524909 -0.14625826 -0.15087602 -0.11780831
-0.03067313 -0.3993417 0.03286269 -0.18867518 -0.15504389 -0.14509626 -0.08501359 -0.2674947
-0.22578698 -0.6076824 -0.09946286 -0.0006044378 -0.35754544 -0.10550551 -0.5457208 -0.28830284
-0.21572547 -0.19002986 -0.30838096 -0.40439132 -0.12626626 -0.19127162 0.34563068 -0.23151352
-0.38042563 -0.34409285 -0.102827795 -0.16642086 -0.33275744 -0.21437229 -0.17742153 -0.29283783
-0.13837114 -0.055050824 -0.35131168 -0.104086444 -0.28035116 -0.47422764 -0.13557115 -0.24550855
-0.20071028 -0.33698228 -0.13816729 -0.07023006 -0.17339844 -0.1057105 -0.209124 -0.13397615
-0.20976624 -0.18447493 -0.23391804 -0.10144044 -0.25916183 0.3485661 -0.41879392 -0.17411202
00000000: b599 27be a91c 97be 9f2f 2dbe e926 05bf
00000010: 426a 5cbe bac4 15be 3e7f 1abe 7c45 f1bd
00000020: 3746 fbbc 8476 ccbe 079b 063d 1134 41be
00000030: d3c3 1ebe 1d94 14be 9b1b aebd 11f5 88be
00000040: b434 67be 1391 1bbf 2fb3 cbbd 2273 1eba
00000050: 3210 b7be 4613 d8bd 5cb4 0bbf 6e9c 93be
00000060: 23e7 5cbe 3097 42be 1ce4 9dbe 610c cfbe
00000070: f14b 01be b5dc 43be 81f6 b03e e111 6dbe
00000080: 26c7 c2be f02c b0be 6197 d2bd 3b6a 2abe
00000090: 2f5f aabe 6984 5bbe fdad 35be d7ee 95be
000000a0: 2ab1 0dbe f97c 61bd 20df b3be 462b d5bd
000000b0: 308a 8fbe f7cd f2be 2ad3 0abe 9866 7bbe
000000c0: ff86 4dbe f188 acbe ba7b 0dbe c7d4 8fbd
000000d0: 5c8f 31be bf7e d8bd 9a24 56be 0b31 09be
000000e0: f6cc 56be ffe6 3cbe 3688 6fbe 01c0 cfbd
000000f0: dcb0 84be 4177 b23e 286c d6be 6c4a 32be

conv_blocks.1.pool.gnn.lin_l.weight f4 [1, 64]
-0.0128232865 -0.09684496 -0.13468316 -0.16442536 -0.23100108 -0.061657604 0.009341747 -0.37805894
-0.0015906793 -0.17808585 -0.08551504 -0.1336931 -0.13391715 -0.09079531 0.18061413 0.036142256
-0.095338486 -0.3490802 0.56740284 0.036991883 -0.2542245 0.21192898 0.30870938 0.15511844
-0.18570869 0.08607124 0.06879076 -0.27040392 -0.08871315 -0.32203507 0.2862402 -0.12544325
-0.05343777 -0.0044352957 0.347943 0.110853754 -0.10577426 -0.07526985 -0.08697112 -0.28681567
-0.015249055 -0.086120844 -0.08093481 -0.10044657 -0.24729605 -0.20022492 -0.10307142 -0.20839614
0.40151206 0.11352707 -0.37760267 -0.02783114 -0.15933535 -0.02692504 -0.13221776 -0.016952505
0.08129723 -0.14378846 -0.055943087 -0.059391387 -0.13673222 -0.4294427 -0.27518576 -0.10479985
00000000: c318 52bc a656 c6bd 62ea 09be 1f5f 28be
00000010: 8c8b 6cbe af8c 7cbd 200e 193c f190 c1be
00000020: 577e d0ba 235c 36be 8222 afbd d8e6 08be
00000030: 9421 09be e4f2 b9bd e9f2 383e e709 143d
00000040: d340 c3bd a4ba b2be 5041 113f cd84 173d
00000050: b729 82be e903 593e 280f 9e3e 5ed7 1e3e
00000060: 6b2a 3ebe 1e46 b03d 2ce2 8c3d 6272 8abe
00000070: 3daf b5bd c8e1 a4be 138e 923e 3274 00be
00000080: 90e1 5abd f555 91bb 9625 b23e 4b07 e33d
00000090: 2da0 d8bd 1427 9abd ea1d b2bd 81d9 92be
000000a0: 2cd7 79bc 2060 b0bd 26c1 a5bd eeb6 cdbd
000000b0: 2d3b 7dbe c307 4dbe 1c17 d3bd cc65 55be
000000c0: fd92 cd3e e180 e83d 2355 c1be 22fe e3bc
000000d0: ce28 23be e791 dcbc 1864 07be fbdf 8abc
000000e0: 2a7f a63d 483d 13be 9424 65bd 6244 73bd
000000f0: 8803 0cbe eadf dbbe 26e5 8cbe 4ea1 d6bd

conv_blocks.1.pool.gnn.lin_r.weight f4 [1, 64]
-0.095725045 0.018154189 -0.08588958 -0.13844304 0.096459374 0.006791043 0.034794558 0.08407397
0.014531552 0.020153705 0.15764996 0.049278293 -0.029358089 0.090155594 0.41992325 -0.15086718
0.17100771 0.45540726 0.49987033 -0.8316425 0.22832848 0.015713021 0.0010435822 -0.14925008
-0.50743383 -0.0075667766 0.13056625 -0.01052365 -0.068249315 -0.46103135 -0.14740454 -0.12200505
-0.17360674 0.15630083 0.40867406 0.014671161 0.008483461 -0.17174533 0.024532184 0.26909873
-0.23343255 -0.2911244 0.012763294 0.025380807 0.05968422 -0.42396888 0.03830772 -0.2401104
0.27750823 0.019551232 0.007907228 0.0011662091 0.010041011 0.015024435 -0.41490155 -0.09430727
0.08507253 0.0630451 0.12493988 -0.010972511 -0.14816733 -0.15435019 0.36856294 -0.004195598
00000000: 7e0b c4bd 18b8 943c e0e6 afbd 03c4 0dbe
00000010: 7e8c c53d 6687 de3b bd84 0e3d f92e ac3d
00000020: bf15 6e3c 6219 a53c fe6e 213e 09d8 493d
00000030: 6080 f0bc 7fa3 b83d 2e00 d73e ed7c 1abe
00000040: a51c 2f3e 242b e93e 01ef ff3e 86e6 54bf
00000050: f1ce 693e 98b8 803c cfc8 883a 03d5 18be
00000060: 2fe7 01bf b9f2 f7bb 29b3 053e 636b 2cbc
00000070: 4cc6 8bbd 4d0c ecbe 37f1 16be c9dd f9bd
00000080: f7c5 31be 530d 203e ba3d d13e 4f5f 703c
00000090: 37fe 0a3c 02de 2fbe b8f7 c83c 4fc7 893e
000000a0: f108 6fbe 420e 95be 231d 513c 69eb cf3c
000000b0: 7177 743d 7312 d9be 8ee8 1c3d 80df 75be
000000c0: 8f15 8e3e e829 a03c 518d 013c 7cdb 983a
000000d0: 0d83 243c 0c29 763c fa6d d4be 2c24 c1bd
000000e0: 823a ae3d ca1d 813d 7be0 ff3d 0cc6 33bc
000000f0: 2db9 17be fa0d 1ebe 48b4 bc3e 3a7b 89bb

conv_blocks.2.conv.weight f4 [64, 64]
0.017027058 0.00027551848 -0.19619405 0.05011513 0.020098167 -0.021588093 0.0010261887 0.00047431924
0.07261747 -6.646648e-05 0.0110960435 -0.022317555 -0.17301969 0.0011694467 -0.004008234 -0.13172317
0.16478491 -0.050330102 0.030225527 -0.09596018 0.046874564 -0.08087413 -0.15314613 -0.0006872359
0.02196777 0.000243852 -0.000113359725 0.037005868 0.15262882 0.09865254 -0.0019096029 -0.06615381
0.08850192 0.015679339 -0.0026051416 -0.016211478 -0.14294793 0.00044583675 0.04023044 0.023725042
-0.022032935 -0.07406792 -0.09071881 -0.0010759111 0.015026765 -0.33305213 0.06658899 -0.070917666
-0.2373806 0.06303491 -0.012897502 -0.00076211296 -0.011567381 -0.033397257 -0.08488738 0.023012016
-0.16918287 -0.08672124 -0.09169114 -0.011629921 0.0059383377 -0.01218329 0.16435048 0.003576361
-0.002706495 0.011649306 -0.0035923622 0.0053198584 -0.0004507589 -0.0067849397 0.0016606245 0.010711981
-0.002189633 -7.295017e-05 0.0027073182 0.017404502 -0.005998121 -2.1552343e-05 -0.0012822422 -0.0042186915
-0.0022182518 -0.014821738 0.0054889745 0.0005835824 0.00087751966 -0.023688845 -0.0022783123 -4.734348e-05
-0.0052544186 -0.00037000948 -0.00017757567 -0.016503297 -0.0008378688 0.0024737269 -0.0025766762 0.00035992468
0.21612985 -0.00011635838 0.0023691852 0.00050197437 0.03432725 -0.0013552504 0.01259757 0.0015463906
-0.0068427348 -0.009433537 -0.003211205 -0.0010082624 -0.00011205271 0.0009077529 -0.0037280007 -0.00068804016
-0.00061965646 0.027137995 -0.0058013224 0.00010495601 -0.011615576 0.0017176874 -0.0071437834 0.00012098691
-0.0043610567 -0.0019562885 0.0014358406 -0.000934067 0.009349833 -0.0010292698 -0.120235786 0.00094266876
-0.00038375828 -0.022419024 -0.0010338167 0.099193655 -9.858395e-05 0.0097152535 -0.0034740153 0.008187576
-0.031071747 -3.568932e-05 0.007700608 0.014780353 -0.02269374 0.0001809613 0.014128178 -0.011338837
0.04488282 -9.944214e-05 0.0011207211 0.02157512 0.00038753753 0.029593954 0.0231703 0.001418092
0.00027424473 0.0018766562 0.00020357234 0.013545641 0.0004401621 0.00051782577 0.001788346 0.037242763
0.0383315 -0.0034790144 0.010287126 0.06830677 -0.019199723 -0.0036549466 0.003287168 0.08707603
0.006943659 0.025490355 -0.042484466 -0.00030079111 -0.012395658 -0.04954365 0.012415826 -0.0005048854
-0.09740666 0.03389061 0.0002694777 -0.00013100533 0.015752753 -0.00195238 -0.0008020085 -0.016096523
-0.016236687 0.009527035 0.0015181868 -0.006737021 0.041685652 -0.0028911605 0.068216495 0.049932722
-0.032968815 0.051894847 -0.035343096 0.13405067 -0.011292885 -0.013525317 -0.025868073 0.0021519193
0.03511692 0.02675526 0.002267437 0.04341336 0.0016648842 -0.00019785715 -0.02642234 0.18095045
0.059290428 -0.0014730989 0.002521118 0.20495836 -0.0077147475 -0.08924919 -0.0006218555 0.006786163
0.057373557 -0.0031365717 0.0011893668 -0.076104105 0.018306026 0.022311157 -0.11790989 -0.08075526
0.1869843 0.00020997161 -0.072775364 0.121299416 0.12871863 -0.0015576913 0.013943276 0.1892862
-0.0025198718 0.00047968933 0.03691166 -0.0072031547 -0.05908597 0.04215151 0.09472114 -0.0014458677
-0.00023535542 0.16559206 0.008301227 0.0006546024 0.13180983 0.0005062584 -0.0012451891 0.09988072
0.11535999 0.21248938 0.047883175 -0.028691834 0.011592803 -0.01057135 0.24719352 0.12432124
00000000: 547c 8b3c 7773 9039 18e7 48be 8645 4d3d
00000010: e9a4 a43c 83d9 b0bc 2e81 863a 0dae f839
00000020: 78b8 943d eb63 8bb8 2ecc 353c 4ed3 b6bc
00000030: 132c 31be 1f48 993a 8157 83bb 70e2 06be
00000040: 60bd 283e f026 4ebd 869b f73c c586 c4bd
00000050: 8bff 3f3d 56a1 a5bd 57d2 1cbe 9f27 34ba
00000060: c1f5 b33c 86b2 7f39 8abb edb8 7793 173d
00000070: bb4a 1c3e 580a ca3d a44b faba a67b 87bd
00000080: 7f40 b53d f571 803c 06bb 2abb efcd 84bc
00000090: f160 12be 32bf e939 adc8 243d 055b c23c
000000a0: 6a7e b4bc ecb0 97bd c9ca b9bd 9605 8dba
000000b0: d232 763c cf85 aabe cf5f 883d 483d 91bd
000000c0: e613 73be 7218 813d 0b50 53bc 89c8 47ba
000000d0: 1d85 3dbc 90cb 08bd 6fd9 adbd b283 bc3c
000000e0: 463e 2dbe e89a b1bd 90c8 bbbd 6d8b 3ebc
000000f0: 6396 c23b 6c9c 47bc 7e4b 283e 6261 6a3b
00000100: 745f 31bb bbdc 3e3c d66d 6bbb 3552 ae3b
00000110: d653 ecb9 3354 debb 50a9 d93a 4e81 2f3c
00000120: f27f 0fbb d3fc 98b8 436d 313b e393 8e3c
00000130: e38b c4bb 4ecb b4b7 e910 a8ba f33c 8abb
00000140: 1760 11bb e0d6 72bc dbdc b33b 8dfb 183a
00000150: 5909 663a 1c0f c2bc bd4f 15bb ad92 46b8
00000160: 422d acbb d5fd c1b9 9b33 3ab9 ec31 87bc
00000170: 6ca4 5bba 401e 223b 74dd 28bb 46b4 bc39
00000180: 2551 5d3e 6e05 f4b8 5544 1b3b ee96 033a
00000190: bb9a 0c3d a8a2 b1ba 0a66 4e3c 42b0 ca3a
000001a0: 0539 e0bb 1f8f 1abc 1473 52bb ac27 84ba
000001b0: d7fd eab8 44f6 6d3a 7951 74bb 985d 34ba
000001c0: 7170 22ba 8050 de3c 0519 bebb d41b dc38
000001d0: 424f 3ebc 0624 e13a 6616 eabb 5aba fd38
000001e0: 32e7 8ebb 1335 00bb d132 bc3a 2ddc 74ba
000001f0: 0b30 193c 90e8 86ba 2e3e f6bd 6e1d 773a
00000200: 2a33 c9b9 1aa8 b7bc 2281 87ba 0b26 cb3d
00000210: dbbe ceb8 ba2c 1f3c 4eac 63bb 2f25 063c
00000220: 2d8a febc 1eb1 15b8 6255 fc3b 4b29 723c
00000230: 39e8 b9bc 6ec0 3d39 e079 673c 88c6 39bc
00000240: 0cd7 373d 988b d0b8 29e5 923a 4ebe b03c
00000250: 682e cb39 056f f23c a4cf bd3c 46df b93a
00000260: 81c8 8f39 22fa f53a 0976 5539 89ee 5d3c
00000270: 8fc5 e639 b3be 073a ef66 ea3a de8b 183d
00000280: 7e01 1d3d 2d00 64bb 558b 283c 6be4 8b3d
00000290: bd48 9dbc d487 6fbb 876d 573b eb54 b23d
000002a0: a287 e33b 26d1 d03c 3104 2ebd 80b3 9db9
000002b0: 2817 4bbc 48ee 4abd c06b 4b3c 495a 04ba
000002c0: 257d c7bd e1d0 0a3d af48 8d39 7a5e 09b9
000002d0: eb0b 813c 00e7 ffba e13d 52ba dbdc 83bc
000002e0: cd02 85bc 4817 1c3c e5fd c63a 3ac2 dcbb
000002f0: 93be 2a3d a079 3dbb 17b5 8b3d 4186 4c3d
00000300: 4f0a 07bd b18f 543d ecc3 10bd 9444 093e
00000310: cb05 39bc 4b99 5dbc 48e9 d3bc 3707 0d3b
00000320: c2d6 0f3d d92d db3c 4899 143b 35d2 313d
00000330: 3e38 da3a e077 4fb9 aa73 d8bc 134b 393e
00000340: 85da 723d ff14 c1ba 5739 253b 9be0 513e
00000350: fecb fcbb 48c8 b6bd 0404 23ba 765e de3b
00000360: 8900 6b3d f18e 4dbb 87e4 9b3a 78dc 9bbd
00000370: 85f6 953c e3c5 b63c be7a f1bd 0463 a5bd
00000380: d078 3f3e d32b 5c39 400b 95bd d46b f83d
00000390: d1ce 033e 722b ccba 5772 643c 3ed4 413e
000003a0: 6f24 25bb d07e fb39 ae30 173d 7108 ecbb
000003b0: 2104 72bd 10a7 2c3d 28fd c13d 4583 bdba
000003c0: bdc9 76b9 f790 293e df01 083c a099 2b3a
000003d0: 28f9 063e 6db6 043a 9d35 a3ba 438e cc3d
000003e0: dc41 ec3d d196 593e 2621 443d 230b ebbc
000003f0: bdef 3d3c 7533 2dbc 4c20 7d3e 229c fe3d

conv_blocks.2.conv.bias f4 [64]
-0.10798513 -0.30314624 -0.48973873 -0.13405089 -0.3529718 -0.090341434 -0.22800973 -0.13794813
-0.12351467 -0.14521411 -0.218832 -0.08622873 -0.19590399 -0.40198618 -0.14725308 -0.2097767
-0.14611201 -0.6749404 -0.30743527 -0.15954272 -0.1754943 -0.031402275 -0.29252616 -0.30429143
-0.29431948 -0.33470446 -0.05604375 -0.25305995 -0.23143508 -0.20724711 -0.3951662 -0.16275932
0.29048213 -0.1403314 -0.028078511 -0.15632759 -0.053398676 -0.47038195 -0.14872591 -0.14221883
-0.12603681 -0.11842604 -0.25549772 -0.3184873 -0.19983649 -0.2802097 -0.16853459 -0.15014254
-0.15794873 -0.052891705 -0.21616259 -0.095566094 -0.13152096 -0.056286015 -0.39344698 -0.17288609
-0.18201566 -0.17842835 -0.118611366 -0.23047699 -0.16071 -0.26208156 -0.19663453 -0.20946981
00000000: 4f27 ddbd fc35 9bbe 09bf fabe a344 09be
00000010: b8b8 b4be ee04 b9bd 627b 69be 4642 0dbe
00000020: 42f5 fcbd 02b3 14be 7f15 60be b098 b0bd
00000030: 0e9b 48be 22d1 cdbe 83c9 16be b4cf 56be
00000040: 639e 15be e5c8 2cbf 2868 9dbe 2b5f 23be
00000050: c7b4 33be ac9f 00bd fdc5 95be 16cc 9bbe
00000060: 0bb1 96be 625e abbe 228e 65bd 1391 81be
00000070: 51fd 6cbe 9638 54be 3953 cabe 61aa 26be
00000080: 13ba 943e 09b3 0fbe e804 e6bc 5714 20be
00000090: 92b8 5abd e7d5 f0be 9b4b 18be d0a1 11be
000000a0: cb0f 01be 5a89 f2bd 99d0 82be c410 a3be
000000b0: f0a1 4cbe a577 8fbe 5594 2cbe f7be 19be
000000c0: 50bd 21be f9a4 58bd ba59 5dbe 28b8 c3bd
000000d0: 6ead 06be 2a8c 66bd e271 c9be 0d09 31be
000000e0: 5062 3abe ecb5 36be 84ea f2bd 2902 6cbe
000000f0: 2a91 24be 8e2f 86be 905a 49be 417f 56be

conv_blocks.2.pool.gnn.lin_l.weight f4 [1, 64]
-0.09242101 -0.26172137 -0.23635814 0.0007463611 -0.070922434 0.051518187 -0.040790923 0.0025369807
0.008308377 0.019559894 0.1349666 0.026341826 0.08935035 0.028512271 -0.011462216 -0.015354387
-0.1409195 0.17284872 -0.06333978 0.040605027 -0.06849157 -0.10910766 -0.09134972 0.039674405
-0.07058819 0.03459354 -0.0058700438 -0.038718984 -0.097330354 0.01609098 -0.19882184 -0.16879176
0.07562083 0.009501559 0.0032894062 -0.044775743 -0.12891805 -0.04494814 -0.05566159 -0.11048838
-0.048469935 0.018075483 0.017688958 -0.12604085 -0.086619206 0.13971739 -0.18979026 -0.0044395383
0.047099955 0.041590214 0.18354498 -0.048410285 -0.07159215 0.07985938 0.0557955 -0.08043391
-0.15549569 -0.15361597 0.105016515 -0.4114765 0.034008555 -0.22895572 0.3129313 -0.16285712
00000000: 3a47 bdbd 5800 86be de07 72be 72a7 433a
00000010: c83f 91bd bc04 533d 6214 27bd 7943 263b
00000020: dc1f 083c 123c a03c af34 0a3e d0ca d73c
00000030: 51fd b63d 9192 e93c 05cc 3bbc f890 7bbc
00000040: 344d 10be 41ff 303e 49b8 81bd 7551 263d
00000050: 4f45 8cbd d673 dfbd 9015 bbbd a181 223d
00000060: 8a90 90bd f5b1 0d3d 7f59 c0bb cc97 1ebd
00000070: 2355 c7bd 3bd1 833c f497 4bbe bfd7 2cbe
00000080: 18df 9a3d 6dac 1b3c 1493 573b c566 37bd
00000090: 1803 04be 8a1b 38bd 68fd 63bd bb47 e2bd
000000a0: 6988 46bd 0913 943c 6fe8 903c da10 01be
000000b0: 6965 b1bd 1312 0f3e 6158 42be 8c79 91bb
000000c0: e2eb 403d 805a 2a3d 37f3 3b3e dd49 46bd
000000d0: e89e 92bd 518d a33d d289 643d 89ba a4bd
000000e0: 433a 1fbe 814d 1dbe e612 d73d 0cad d2be
000000f0: 8e4c 0b3d 5e73 6abe 8838 a03e 04c4 26be

conv_blocks.2.pool.gnn.lin_r.weight f4 [1, 64]
-0.40314686 -0.1959651 -0.20261073 -0.22809646 -0.1954462 0.013695655 -0.34186006 -0.13957657
-0.17183453 0.03139358 0.07812885 -0.00686214 -0.14720634 -0.05802034 -0.026576813 -0.023433339
-0.22554442 0.23984125 0.083601855 -0.2734232 0.052316245 0.14834791 -0.11938756 0.034277808
0.14968765 -0.07503727 -0.09612379 0.111618 -0.27020133 0.104465164 -0.067806296 -0.13198677
-0.35921443 0.049696714 0.27902073 -0.09884934 -0.10690861 -0.03996763 0.026338091 -0.06874744
-0.029044732 -0.005498435 0.053827178 -0.014444889 0.06824933 0.08630929 -0.15582934 -0.008901042
-0.013831249 -0.08058797 0.09436977 -0.081799604 -0.027803343 -0.06236514 0.18442906 -0.17182772
0.028042667 -0.23877807 -0.3646853 0.0524488 -0.07596429 -0.29600367 -0.46996638 -0.061570533
00000000: 4469 cebe 13ab 48be 3079 4fbe 1e92 69be
00000010: 0c23 48be be63 603c 4808 afbe 29ed 0ebe
00000020: 64f5 2fbe 8e96 003d 0502 a03d cddb e0bb
00000030: 42bd 16be bca6 6dbd 9eb7 d9bc 46f7 bfbc
00000040: 1ef5 66be f298 753e 7337 ab3d 20fe 8bbe
00000050: 8f49 563d 84e8 173e 7781 f4bd e366 0c3d
00000060: b847 193e 24ad 99bd 8ddc c4bd fa97 e43d
00000070: d457 8abe d5f1 d53d 07de 8abd 8a27 07be
00000080: f4ea b7be c88e 4b3d cedb 8e3e 8671 cabd
00000090: e7f2 dabd 19b5 23bd fbc2 d73c 75cb 8cbd
000000a0: 38ef edbc 372c b4bb e379 5c3d 41aa 6cbc
000000b0: 4ec6 8b3d edc2 b03d ba91 1fbe add5 11bc
000000c0: 779c 62bc 4e0b a5bd f044 c13d 8d86 a7bd
000000d0: d6c3 e3bc 9772 7fbd f9da 3c3e 9bf3 2fbe
000000e0: bcb9 e53c 3d82 74be 08b8 babe 8ed4 563d
000000f0: 2a93 9bbd cb8d 97be 6f9f f0be 6231 7cbd

conv_blocks.3.conv.weight f4 [64, 64]
0.00037427366 0.48425338 0.002176715 -0.09078453 0.13612774 0.03492151 0.15500055 -0.11031743
-0.19350079 -9.304054e-06 0.022812875 0.17620572 0.1076669 0.000118977005 0.06567503 -0.0008597611
-0.08700288 0.12610126 -0.036472023 0.19445598 0.0031408523 -0.42994314 0.007945207 0.008573825
0.19703011 0.13392104 0.017151969 0.036219068 0.14137042 0.017416773 0.057084955 0.14941776
0.01211355 0.0015453073 0.120107695 0.04535227 -0.017414175 0.018329121 -0.016959567 0.058802754
0.15987976 -0.15624426 0.008071924 0.0004666535 0.16211015 0.16614816 0.037030138 0.0061724368
0.00022340943 3.510549e-05 0.020491695 6.7175286e-05 0.12780212 -0.00023314236 -0.012978204 0.18656804
0.050904177 0.011818785 0.16900088 -0.16273071 0.46426457 -0.28389865 0.24261312 -0.09324365
0.0035635072 0.22936362 -0.014103078 0.12685694 -0.029182985 0.069753364 0.038861092 0.29715398
-0.07195753 0.00023502532 0.005538945 0.04125848 -0.08390217 0.0011363026 -0.084114924 0.0016466927
-0.022034261 0.009647312 0.05371684 0.08149904 0.003420819 -0.27910978 0.018398743 0.15393063
0.027252853 0.109529376 0.0010270397 0.0108849965 -0.0763498 0.0008094094 0.17958616 0.07829007
0.0015211622 -0.0002878479 0.0714062 -0.022647573 -0.15959437 0.0019955663 -0.065159924 -0.1683064
0.029921079 0.14312921 -0.00035129162 -0.00012571056 0.1143856 0.06777703 0.06424502 0.0031618017
0.0003511125 0.0013036394 0.012968494 0.00011278504 -0.0011124917 -0.00012807481 0.00016017476 0.30270433
-0.00307917 -0.00056131324 0.03939889 -0.39214787 0.45900613 -0.07622283 -0.036626913 -0.21953636
0.0022826637 -0.14422582 -0.0416903 -0.048420932 0.00014460906 -0.007986634 -0.00014067498 0.06323403
-0.10566345 0.050016433 -0.00020565759 0.0025438953 0.0011591965 0.00051533314 0.011543396 -0.0062049595
-0.06088505 -0.0016992538 0.0044055535 0.0032949958 0.09328457 -0.017612753 0.0060587907 -0.042925484
0.007872346 0.0052153114 0.03811242 0.005272003 0.0012056137 0.0013563914 0.05604666 0.021985488
-0.00040506912 0.028143601 -0.011745566 -0.1759787 -0.28115013 0.000493085 0.0013848626 3.1435313e-05
0.02896681 -0.027879389 0.02427242 0.003644572 0.0038618522 -0.033771694 -0.07566018 0.062493127
0.0010670972 0.011620073 0.004104753 0.00038672995 -0.15707809 -0.00068037736 0.0006808071 0.00023661644
0.000560734 0.002310111 0.0013034681 -0.052752137 0.0014448728 -0.052614402 0.0028668107 -0.021806516
0.0006749601 -0.04749065 0.001271225 0.08711653 0.10536918 0.045074128 -0.00023565002 -0.03483354
0.12932405 -0.05554854 0.024200879 0.16060314 -0.004965437 4.866982e-05 0.009171673 9.039194e-05
0.047026113 0.09579879 0.19760665 0.0005879658 0.10697203 -0.16868374 0.0019171985 0.26590452
0.060623683 0.09551038 0.004393634 0.0006600004 0.049941126 0.00039449026 0.058587037 0.02114764
0.07861633 -0.004896439 0.0690954 0.015708478 0.075248495 0.0038405235 0.11333362 0.015817488
0.05715061 -0.047980726 0.02238684 0.00030820674 0.0017110442 0.025725432 0.1426569 -0.033946436
0.00045008372 0.002981412 0.0019427367 0.00015536117 0.1263549 -0.00021364933 0.0029602668 0.107090786
0.02005841 0.016166063 0.13075496 0.005657875 0.04255301 0.029595826 0.19509059 -0.06404371
00000000: 293a c439 0ff0 f73e 38a7 0e3b 3ded b9bd
00000010: 1265 0b3e db09 0f3d 77b8 1e3e 1bee e1bd
00000020: 1225 46be 9c18 1cb7 11e2 ba3c 466f 343e
00000030: 7780 dc3d 4b83 f938 a180 863d 9761 61ba
00000040: 912e b2bd b020 013e b063 15bd 781f 473e
00000050: c2d6 4d3b 8221 dcbe 9d2c 023c 3a79 0c3c
00000060: 43c2 493e 9922 093e 4982 8c3c 725a 143d
00000070: 68c3 103e 9fad 8e3c ead1 693d f800 193e
00000080: e977 463c e98b ca3a 06fb f53d 4dc3 393d
00000090: 2ca8 8ebc f426 963c caee 8abc 28db 703d
000000a0: 85b7 233e 7ffe 1fbe 1a40 043c 2ca9 f439
000000b0: 3400 263e be22 2a3e eaac 173d 2742 ca3b
000000c0: 0343 6a39 3c3e 1338 33de a73c 75e0 8c38
000000d0: 8fde 023e ad77 74b9 88a2 54bc b10b 3f3e
000000e0: e680 503d 94a3 413c 910e 2d3e e1a2 26be
000000f0: 16b4 ed3e 2a5b 91be 936f 783e 87f6 bebd
00000100: bb89 693b 4cde 6a3e 9910 67bc c9e6 013e
00000110: 2811 efbc dada 8e3d cf2c 1f3d 9124 983e
00000120: 785e 93bd 2171 7639 0a80 b53b a7fe 283d
00000130: e7d4 abbd fdef 943a 7244 acbd d7d5 d73a
00000140: 3281 b4bc c20f 1e3c 3006 5c3d f8e8 a63d
00000150: d22f 603b 7ae7 8ebe f6b8 963c fe9f 1d3e
00000160: 6041 df3c f050 e03d bc9d 863a fc56 323c
00000170: 495d 9cbd 8c2e 543a 6fe5 373e 8b56 a03d
00000180: bc61 c73a 4bea 96b9 6a3d 923d 6787 b9bc
00000190: b56c 23be 0cc8 023b 9172 85bd 8358 2cbe
000001a0: 0d1d f53c 7790 123e 902d b8b9 2cd1 03b9
000001b0: ff42 ea3d afce 8a3d e592 833d 3b36 4f3b
000001c0: 8615 b839 e1de aa3a ce79 543c 0287 ec38
000001d0: 07d1 91ba d24b 06b9 96f4 2739 10fc 9a3e
000001e0: e6cb 49bb 1825 13ba bb60 213d 9bc7 c8be
000001f0: da02 eb3e b71a 9cbd 1a06 16bd 24ce 60be
00000200: be98 153b efaf 13be 73c3 2abd 0755 46bd
00000210: 33a2 1739 5fda 02bc 2782 13b9 d880 813d
00000220: 1466 d8bd 08de 4c3d caa5 57b9 7bb7 263b
00000230: 2ef0 973a 6c17 073a 8320 3d3c f952 cbbb
00000240: 9a62 79bd 7fb9 deba 765c 903b dbf0 573b
00000250: fb0b bf3d 9f48 90bc d288 c63b a2d2 2fbd
00000260: 03fb 003c 34e5 aa3b c51b 1c3d c4c0 ac3b
00000270: af05 9e3a f1c8 b13a 2f91 653d e91a b43c
00000280: 755f d4b9 698d e63c 7970 40bc c333 34be
00000290: e9f2 8fbe 6042 013a 4784 b53a 69d9 0338
000002a0: ce4b ed3c 5163 e4bc f4d6 c63c c6d9 6e3b
000002b0: 2117 7d3b 3054 0abd b9f3 9abd cbf8 7f3d
000002c0: d7dd 8b3a 1e62 3e3c 2a81 863b 04c2 ca39
000002d0: 14d9 20be 5a5b 32ba 3178 323a 3e1c 7839
000002e0: 39fe 123a 3b65 173b 22d9 aa3a a012 58bd
000002f0: e361 bd3a 3382 57bd 1ae1 3b3b 94a3 b2bc
00000300: ceef 303a 8e85 42bd 3c9f a63a 276a b23d
00000310: cccb d73d a69f 383d d218 77b9 9dad 0ebd
00000320: 866d 043e de86 63bd ec40 c63c 2675 243e
00000330: 1bb5 a2bb d222 4c38 c944 163c ce90 bd38
00000340: 749e 403d 2832 c43d 6659 4a3e b821 1a3a
00000350: 2714 db3d 6ebb 2cbe 824a fb3a a324 883e
00000360: 8a50 783d f29a c33d 79f8 8f3b e103 2d3a
00000370: 118f 4c3d 96d3 ce39 f6f8 6f3d d13d ad3c
00000380: 9901 a13d 4f72 a0bb e481 8d3d 11af 803c
00000390: e21b 9a3d 4bb1 7b3b 751b e83d ad93 813c
000003a0: c216 6a3d 7087 44bd 9b64 b73c cf96 a139
000003b0: 1e45 e03a 24be d23c a714 123e 6b0b 0bbd
000003c0: 37f9 eb39 cb63 433b 6da3 fe3a 72e8 2239
000003d0: 2e63 013e 0e07 60b9 0901 423b 6a52 db3d
000003e0: 8951 a43c b16e 843c a1e4 053e b265 b93b
000003f0: 114c 2e3d f272 f23c d4c5 473e 5929 83bd

conv_blocks.3.conv.bias f4 [64]
-0.2394836 -0.23428293 -0.23428127 -0.16461156 -0.20948817 -0.08376535 -0.11156425 -0.23279323
-0.41955566 -0.05293477 -0.040312476 -0.2926766 -0.1895885 -0.09517593 -0.13426593 -0.27564925
-0.104972385 -0.8927053 -0.22714807 -0.2211057 -0.022550885 -0.27157968 -0.4324 -0.1567816
-0.065804765 -0.48235875 -0.16634962 -0.6168181 -0.22562855 -0.14366466 -0.13903195 -0.17854969
-0.19426288 -0.34385547 -0.15707624 -0.14673743 0.10430622 -0.056880843 -0.24607119 -0.20589823
-0.19412507 0.41834217 -0.12363441 -0.228342 -0.30169913 -0.24940516 -0.15791783 -0.13574265
-0.09071827 -0.0879562 -0.95774275 -0.033664837 -0.20079021 -0.031184586 -0.20167334 -0.066388205
-0.3592638 -0.16265918 -0.01732505 0.14107892 -0.030765733 -0.08670159 -0.23677142 -0.21978745
00000000: 303b 75be dde7 6fbe 6ee7 6fbe ef8f 28be
00000010: 1184 56be 2b8d abbd cc7b e4bd 5961 6ebe
00000020: 00d0 d6be 21d2 58bd b21e 25bd b5d9 95be
00000030: 7d23 42be 99eb c2bd 027d 09be e621 8dbe
00000040: c3fb d6bd 5688 64bf 8199 68be 8869 62be
00000050: a2bc b8bc 7e0c 8bbe 8863 ddbe 5b8b 20be
00000060: a6c4 86bd baf7 f6be 8e57 2abe cae7 1dbf
00000070: 2c0b 67be d41c 13be 645e 0ebe bbd5 36be
00000080: d9ec 46be d30d b0be 98d8 20be 5642 16be
00000090: 809e d53d e3fb 68bd 16fa 7bbe fcd6 52be
000000a0: b9c8 46be f230 d63e 0a34 fdbd 7cd2 69be
000000b0: 4f78 9abe 1164 7fbe 36b5 21be 1f00 0bbe
000000c0: 80ca b9bd 6122 b4bd a12e 75bf 24e4 09bd
000000d0: f39b 4dbe d176 ffbc 7583 4ebe 8af6 87bd
000000e0: 6df1 b7be 2190 26be 43ed 8dbc fe76 103e
000000f0: 6b08 fcbc 9a90 b1bd 3574 72be f60f 61be

conv_blocks.3.pool.gnn.lin_l.weight f4 [1, 64]
-0.1042914 -0.1102016 -0.15596414 0.12928039 0.02677762 -0.07992703 -0.06660748 -0.12628661
0.15133975 -0.027983136 0.03067205 0.12469076 0.17466821 -0.06607073 0.33432204 -0.025069317
0.028008291 -0.11001486 0.02173219 0.028586825 -0.089763924 0.5228472 -0.03989937 -0.16209614
0.019402837 0.09353814 -0.015026425 -0.11999872 0.22478777 -0.015304127 0.038984098 -0.10346167
-0.1754843 0.027385036 0.09508334 -0.19750725 0.39109406 -0.032633245 0.124592975 0.12998308
0.03748143 0.35046554 -0.03472144 0.34574968 -0.034374107 -0.053274184 -0.03697723 -0.070506126
0.07189911 0.03978415 -0.12953994 0.009935251 -0.3391311 -0.067553505 -0.0028326663 0.0723951
0.0058360235 0.050363444 -0.044980507 0.14547269 -0.029283699 0.2256367 0.057784386 0.28076568
00000000: bb96 d5bd 60b1 e1bd 10b5 1fbe 1462 043e
00000010: bd5c db3c c8b0 a3bd 8169 88bd 4751 01be
00000020: cff8 1a3e e43c e5bc f343 fb3c df5d ff3d
00000030: 39dc 323e 1750 87bd 422c ab3e 2b5e cdbc
00000040: a571 e53c 794f e1bd b507 b23c eb2e ea3c
00000050: 26d6 b7bd 50d9 053f 866d 23bd 88fc 25be
00000060: b3f2 9e3c ed90 bf3d 6531 76bc e4c1 f5bd
00000070: c42e 663e 29be 7abc caad 1f3d b6e3 d3bd
00000080: 28b2 33be 9556 e03c 0ebb c23d 573f 4abe
00000090: 7b3d c83e 70aa 05bd 9a2a ff3d 491a 053e
000000a0: 2186 193d 3870 b33e 1238 0ebd 1a06 b13e
000000b0: ddcb 0cbd 0836 5abd 7075 17bd 8465 90bd
000000c0: d73f 933d b4f4 223d 1ea6 04be 77c7 223c
000000d0: 97a2 adbe 7e59 8abd 41a4 39bb e243 943d
000000e0: 1d3c bf3b e649 4e3d 7b3d 38bd cbf6 143e
000000f0: 5ee4 efbc 4f0d 673e 52af 6c3d 85c0 8f3e

conv_blocks.3.pool.gnn.lin_r.weight f4 [1, 64]
0.090357035 0.03546211 -0.2262173 0.13137968 -0.09332386 -0.26787248 -0.037961036 -0.023427686
-0.120113105 0.001960617 0.022722667 0.16938487 -0.005094071 0.022129102 -0.1857523 -0.19362
-0.032901205 0.0044358913 0.17251654 -0.013489592 -0.23549312 -0.13367088 0.049768113 0.07757288
0.026565794 0.13218358 -0.024103174 -0.022789009 -0.036902998 0.025405994 0.09348931 -0.14527717
-0.16572414 -0.012889644 0.08248159 0.38877696 -0.12890755 0.095843755 -0.01889341 -0.27865386
-0.032306217 -0.05183041 0.024906885 -0.020441582 0.061230775 -0.22820441 0.052902836 0.0007042681
0.032439373 0.030120352 0.1201266 0.007048368 -0.29956856 -0.012830942 0.03952601 0.14450215
0.0646846 0.08652573 -0.04027201 -0.19060965 0.081950694 -0.11472946 -0.04474095 -0.113167144
00000000: 1c0d b93d b840 113d 82a5 67be 6588 063e
00000010: 9420 bfbd 9526 89be 087d 1bbd 6beb bfbc
00000020: dcfd f5bd b27d 003b e324 ba3c 3a73 2d3e
00000030: 2aec a6bb 1748 b53c da35 3ebe 5244 46be
00000040: 6ac3 06bd f45a 913b 2da8 303e 7303 5dbc
00000050: 1c25 71be 05e1 08be a6d9 4b3d 88de 9e3d
00000060: 82a0 d93c 225b 073e 0574 c5bc 04b0 babc
00000070: 9927 17bd 3b20 d03c 5377 bf3d 8ac3 14be
00000080: 97b3 29be 162f 53bc 1cec a83d c60d c73e
00000090: 5700 04be bb49 c43d 5ac6 9abc b8ab 8ebe
000000a0: 8653 04bd 204c 54bd 8609 cc3c 1b75 a7bc
000000b0: 1fcd 7a3d 6bae 69be a5b0 583d a29e 383a
000000c0: 26df 043d f5be f63c ef04 f63d fff5 e63b
000000d0: 0d61 99be df38 52bc 07e6 213d 5ff8 133e
000000e0: 5c79 843d 6734 b13d 43f4 24bd 2d2f 43be
000000f0: c4d5 a73d 47f7 eabd 4942 37bd 2dc4 e7bd
